…
he 40k data-set,
or the way that numpy.random works with a specific seed since the text was published.

D:\Go-Brainer\v0.2\cnn_training>python mcts_cnn_go.py
Using TensorFlow backend.
2019-10-20 19:03:14.088486: I tensorflow/core/platform/cpu_feature_guard.cc:142] Your CPU supports instructions that this TensorFlow binary was not compiled to use: AVX2
Model: "sequential_1"
_________________________________________________________________
Layer (type)                 Output Shape              Param #
=================================================================
conv2d_1 (Conv2D)            (None, 9, 9, 48)          480
_________________________________________________________________
dropout_1 (Dropout)          (None, 9, 9, 48)          0
_________________________________________________________________
conv2d_2 (Conv2D)            (None, 9, 9, 48)          20784
_________________________________________________________________
max_pooling2d_1 (MaxPooling2 (None, 4, 4, 48)          0
_________________________________________________________________
dropout_2 (Dropout)          (None, 4, 4, 48)          0
_________________________________________________________________
flatten_1 (Flatten)          (None, 768)               0
_________________________________________________________________
dense_1 (Dense)              (None, 512)               393728
_________________________________________________________________
dropout_3 (Dropout)          (None, 512)               0
_________________________________________________________________
dense_2 (Dense)              (None, 81)                41553
=================================================================
Total params: 456,545
Trainable params: 456,545
Non-trainable params: 0
_________________________________________________________________
Train on 37295 samples, validate on 4144 samples
Epoch 1/100
37295/37295 [==============================] - 8s 206us/step - loss: 4.3706 - accuracy: 0.0189 - val_loss: 4.3199 - val_accuracy: 0.0290
…
